snapocr/model.pth (torch, 311259 bytes, 20 tensors)

c1.weight f4 [64, 1, 3, 3]
000000 41 90 05 80 4b c3 05 00 2f 74 05 00 e4 b0 05 80
       -5.10926e-40 5.29235e-40 5.00856e-40 -5.22634e-40
000010 3e e0 05 80 4d d2 05 00 96 c9 05 80 d7 32 06 80
       -5.3962e-40 5.34619e-40 -5.31493e-40 -5.69251e-40
000020 e6 82 05 80 16 ce 8c bd b4 48 eb be 92 88 d5 be
       -5.06135e-40 -0.06875245 -0.45953906 -0.41705757
000030 c4 24 d4 be 32 e3 8d be 07 0c 41 3d a3 db 1c 3f
       -0.414343 -0.277124 0.04713061 0.6127264
000040 a1 df db 3e 18 5e 00 3f c5 61 05 80 19 5a 05 00
       0.42944053 0.50143576 -4.9425e-40 4.91498e-40
000050 b9 5f 05 80 ed 61 05 80 3d 5a 05 80 8e 63 05 80
       -4.93516e-40 -4.94307e-40 -4.91549e-40 -4.94891e-40
000060 60 5a 05 80 32 59 05 80 bf 57 05 80 1b ae 18 bf
       -4.91598e-40 -4.91175e-40 -4.90655e-40 -0.59640664
000070 be ac bf be 58 22 a4 3d d1 36 86 3e 7e b5 86 be
       -0.3743648 0.08014363 0.26213697 -0.26310343
000080 46 93 37 bf e2 dd af 3e f5 3c ba 3e f0 2f 8d be
       -0.71709096 0.3434897 0.36374632 -0.27575636
000090 bc 5b 05 00 33 63 05 00 a2 5c 05 00 f9 58 05 00
       4.92086e-40 4.94763e-40 4.92408e-40 4.91095e-40
0000a0 6a 5d 05 00 91 58 05 00 c8 5c 05 00 84 63 05 00
       4.92688e-40 4.90949e-40 4.92461e-40 4.94877e-40
0000b0 33 5f 05 00 ec f3 05 00 60 ad 06 00 97 a5 05 00
       4.93329e-40 5.4668e-40 6.13208e-40 5.1858e-40
0000c0 d1 77 06 00 60 ef 05 80 86 09 06 80 30 65 05 80
       5.93995e-40 -5.45049e-40 -5.5443e-40 -4.95477e-40
0000d0 f6 7c 06 80 23 5b 05 80 94 91 05 00 df 30 06 00
       -5.9584e-40 -4.91871e-40 5.11401e-40 5.68545e-40
0000e0 55 8a 05 00 3c 0e 06 80 77 a4 06 80 ff bd 06 80
       5.08802e-40 -5.5612e-40 -6.10012e-40 -6.19171e-40
0000f0 c8 d9 05 80 37 cf 06 80 e4 7c 05 80 91 5b 05 00
       -5.37303e-40 -6.25348e-40 -5.0398e-40 4.92025e-40
000100 74 60 05 00 a3 57 05 00 fa 59 05 00 e4 61 05 00
       4.93778e-40 4.90616e-40 4.91455e-40 4.94294e-40
000110 f7 5e 05 00 f2 d9 06 00 d7 5e 05 00 b1 5e 05 00
       4.93244e-40 6.29197e-40 4.932e-40 4.93146e-40
000120 d7 cd 06 80 88 e4 05 80 77 63 05 00 a1 13 06 80
       -6.24854e-40 -5.41159e-40 4.94859e-40 -5.58055e-40
000130 7e 0e 06 00 16 57 06 80 9e 9c 05 80 4e bb 05 00
       5.56212e-40 -5.82254e-40 -5.15361e-40 5.2637e-40
000140 de d8 05 80 38 66 06 00 f0 d4 06 00 aa b4 06 00
       -5.36975e-40 5.87682e-40 6.274e-40 6.15823e-40
000150 b2 c3 05 00 01 ad 05 00 8d 6b 05 80 66 bb 05 80
       5.2938e-40 5.2124e-40 -4.9776e-40 -5.26403e-40
000160 9d bb 06 00 ad 8c 06 80 42 58 05 80 a6 61 05 80
       6.18316e-40 -6.01478e-40 -4.90838e-40 -4.94207e-40
000170 d2 5d 05 00 b1 5e 05 80 93 59 05 80 b4 5f 05 80
       4.92834e-40 -4.93146e-40 -4.9131e-40 -4.93509e-40
000180 30 60 05 80 1f 60 05 80 d9 5f 05 80 a1 38 ba 3e
       -4.93683e-40 -4.93659e-40 -4.93561e-40 0.3637133
000190 73 ca 07 3f e4 98 f8 bd 41 5c 0b bf 29 76 0c 3f
       0.5304329 -0.121385366 -0.54437643 0.548678
0001a0 54 53 8f 3e 72 5f f6 be c8 d4 c5 be 76 ed 46 3d
       0.27993262 -0.48119694 -0.38638902 0.048566304
0001b0 75 6d 05 80 99 6b 05 00 b5 7d 05 80 48 67 05 80
       -4.98443e-40 4.97776e-40 -5.04273e-40 -4.96228e-40
0001c0 02 95 06 80 95 6d 05 80 7b 72 05 80 a5 74 05 80
       -6.04467e-40 -4.98488e-40 -5.00245e-40 -5.01022e-40
0001d0 ac 62 05 80 b1 d6 06 00 61 5e 05 00 d8 9c 06 80
       -4.94574e-40 6.2803e-40 4.93034e-40 -6.07278e-40
0001e0 4c 59 05 00 e4 ff 05 00 59 d4 06 00 fd 6a 06 80
       4.91211e-40 5.50974e-40 6.27189e-40 -5.89393e-40
0001f0 11 73 06 80 2d 8e 06 80 24 30 8b ba ef 42 b1 b7
       -5.92291e-40 -6.02016e-40 -0.0010619205 -2.1131213e-05
000200 41 eb 9f ba 06 4d 23 ba 7b ea b1 b5 44 49 40 ba
       -0.0012200848 -0.0006229434 -1.325577e-06 -0.0007335136
000210 0b fb a9 ba 37 6b eb 38 98 f6 90 ba e3 f5 1a bf
       -0.0012968493 0.000112256435 -0.0011059819 -0.60531443
000220 44 f3 02 bf bb 9f 2a bf c0 2f 88 bd 49 f5 ff 3d
       -0.51152444 -0.6664998 -0.066497326 0.12497956
000230 36 58 c5 3e 88 49 cb 3d 1f fd e0 3e a3 0a 88 3e
       0.38543862 0.09926134 0.43943116 0.26570615
000240 a2 5f 05 80 4f 59 05 80 2a 5d 05 80 7b 5b 05 80
       -4.93484e-40 -4.91215e-40 -4.92598e-40 -4.91994e-40
000250 0c 5b 05 80 6e 5c 05 80 a3 5c 05 80 5b 5f 05 80
       -4.91839e-40 -4.92335e-40 -4.92409e-40 -4.93385e-40
000260 27 5b 05 80 e9 c2 b3 3e 03 b0 19 bf bd e0 cd be
       -4.91877e-40 0.35109642 -0.600342 -0.40210524
000270 08 e6 47 3f 00 3e 6e be 02 1f c9 be 11 da 02 3f
       0.78085375 -0.23265839 -0.3928147 0.5111399
000280 d2 3b d8 3d ac 9c 3f 3e b7 73 a6 be 0b 0e 86 3e
       0.10558285 0.1871211 -0.32510158 0.2618259
000290 cf b9 b9 3e 62 9f 03 bf cd 83 fa 3c fe 19 a2 3e
       0.36274573 -0.51415074 0.030580426 0.31660455
0002a0 ff ad 43 be 7b 23 e1 be 5a 9d 07 bf fb c3 b5 3e
       -0.19109343 -0.43972382 -0.52974474 0.35501084
0002b0 7e 36 98 3d 11 44 b9 be f5 b8 bc 3e 46 8b 7d 3e
       0.074322686 -0.36184743 0.3685986 0.2476016
0002c0 ab 6f 2b bf 30 83 d8 3e 45 b5 45 3e 3b 56 31 bf
       -0.66967267 0.42287588 0.1930743 -0.692722
0002d0 64 aa c2 3e fa 09 af be 41 b1 8d be 55 5d 75 3e
       0.38020623 -0.341873 -0.27674296 0.23961385
0002e0 2f ca 0a bf 35 6a 4a 3e 60 bd 0b bf 10 9c a6 be
       -0.5421476 0.19767077 -0.5458584 -0.3254094
0002f0 b4 78 dc 3e 83 5c 05 80 fd 5c 05 80 a7 60 05 80
       0.4306084 -4.92364e-40 -4.92535e-40 -4.9385e-40
000300 7b 5b 05 00 c6 62 05 80 03 63 05 80 99 5d 05 00
       4.91994e-40 -4.94611e-40 -4.94696e-40 4.92754e-40
000310 14 5a 05 80 3b 64 05 80 eb 92 0b ae e5 44 1f ae
       -4.91491e-40 -4.95133e-40 -3.173543e-11 -3.6213605e-11
000320 86 4a 96 2c c5 19 18 aa 19 51 c4 a4 bd ec 46 23
       4.27153e-12 -1.3509253e-13 -8.5138835e-17 1.0783733e-17
000330 b8 24 54 ad 5d de 43 a8 da 2e af 24 c9 5b 05 00
       -1.2058958e-11 -1.0872892e-14 7.597352e-17 4.92104e-40
000340 72 5d 05 80 0c 64 05 80 ad 60 05 00 04 64 05 80
       -4.927e-40 -4.95068e-40 4.93858e-40 -4.95056e-40
000350 fe 5a 05 80 31 64 05 80 71 60 05 80 e4 5b 05 80
       -4.9182e-40 -4.9512e-40 -4.93774e-40 -4.92142e-40
000360 c1 2d c8 bd 71 c5 06 bf 18 e9 5d 3d f2 1b 7b be
       -0.09774352 -0.5264502 0.054177374 -0.24522379
000370 3c 02 27 be f1 39 84 3e 4d 8c 99 be 20 0a 97 be
       -0.16309446 0.25825456 -0.29989854 -0.29499912
000380 4a ca 05 bd f8 37 01 3f ce cf e8 3e 4e db a4 be
       -0.03266362 0.50476027 0.45471042 -0.32198566
000390 d7 40 bb 3e 96 e1 de 3d 7c 95 f9 be c9 c7 c2 be
       0.36572906 0.10882871 -0.4874686 -0.3804305
0003a0 01 6a 15 bf d3 b5 c1 be e5 f3 75 3e bd 1d 13 3f
       -0.58364874 -0.37834033 0.2401882 0.5746725
0003b0 22 67 4f 3f e4 3c d4 be b2 cf fc be 70 a5 ca 3c
       0.81016743 -0.41452706 -0.4937721 0.02473709
0003c0 9f 73 4b bc af 88 02 bf 05 04 87 bd ec 3c 11 be
       -0.012417703 -0.5098981 -0.065925635 -0.14183396
0003d0 5d 01 84 be 41 2b a6 3e c5 68 e2 3e ca ce 19 3f
       -0.2578229 0.32454875 0.44220558 0.6008116
0003e0 08 b4 9a 3e 82 b0 98 be 99 73 d2 be be ed 31 bf
       0.30215478 -0.29822165 -0.4110382 -0.6950339
0003f0 97 78 ed 29 b7 42 1c ad ff 12 c5 b7 9f ff 59 af
       1.0545833e-13 -8.882387e-12 -2.3493076e-05 -1.982685e-10

c1.bias f4 [64]
000000 0a 64 06 00 df bd f5 39 fa 2f 06 00 cd 01 ab b9
       5.869e-40 0.00046871506 5.68224e-40 -0.00032617003
000010 b6 57 05 00 dc c3 05 80 e8 71 06 80 f1 8c 06 00
       4.90642e-40 -5.29439e-40 -5.91875e-40 6.01573e-40
000020 4c ed 05 80 60 fa 05 00 3d e9 05 80 82 d2 5c 39
       -5.44304e-40 5.48995e-40 -5.42848e-40 0.00021059255
000030 6e 8e 06 80 e3 5f 05 80 ee bb 06 00 76 3d 6e b8
       -6.02107e-40 -4.93575e-40 6.1843e-40 -5.680086e-05
000040 e1 c9 05 80 6d 72 cb 39 c1 bc 55 39 b6 22 3d 3a
       -5.31598e-40 0.0003880443 0.00020383579 0.000721495
000050 c4 4d 1f b9 63 a8 05 80 1e 76 06 00 d7 66 05 00
       -0.00015192392 -5.19583e-40 5.93385e-40 4.9607e-40
000060 1b d1 9b b7 54 f8 d1 b7 44 64 fd b9 57 10 7a b9
       -1.8574812e-05 -2.5030378e-05 -0.00048330624 -0.00023847945
000070 e9 f5 05 00 32 d0 06 00 e4 a2 05 80 f5 69 06 00
       5.47393e-40 6.257e-40 -5.17612e-40 5.89023e-40
000080 0c ae 06 80 8a af 99 39 d1 0e 06 00 2c 17 44 b9
       -6.13449e-40 0.0002931322 5.56328e-40 -0.00018700649
000090 25 70 5b b8 08 67 06 80 38 03 2f 3a 83 26 06 00
       -5.231811e-05 -5.87974e-40 0.00066762 5.64828e-40
0000a0 38 85 05 80 84 df 05 80 86 e0 05 80 66 36 06 80
       -5.06967e-40 -5.3936e-40 -5.39721e-40 -5.70527e-40
0000b0 3a 7c 80 b8 d1 97 05 80 30 6e 06 80 96 a1 05 80
       -6.1266546e-05 -5.13639e-40 -5.90541e-40 -5.17144e-40
0000c0 62 c6 83 b7 28 8a 4c b8 9d ab 05 00 d3 60 06 80
       -1.5708796e-05 -4.8766058e-05 5.20741e-40 -5.85747e-40
0000d0 01 a1 05 00 7f 2c 06 00 44 54 5b 92 11 ec 05 80
       5.16935e-40 5.66975e-40 -6.920808e-28 -5.43862e-40
0000e0 86 9f 7b 80 fb 38 06 00 41 1f 06 00 80 e5 08 ba
       -1.1352992e-38 5.71454e-40 5.62225e-40 -0.00052221864
0000f0 eb 61 05 80 9a ee 1e b9 53 23 06 80 8b 18 06 00
       -4.94304e-40 -0.0001515694 -5.63685e-40 5.59817e-40

c2.weight f4 [56, 64, 3, 3]
000000 c8 58 06 80 95 7e 06 00 06 0e 06 80 98 87 05 00
       -5.82862e-40 5.96422e-40 -5.56044e-40 5.0782e-40
000010 8b d5 06 00 72 6e 05 00 09 89 06 00 cc e1 05 00
       6.27618e-40 4.98798e-40 6.00172e-40 5.40178e-40
000020 03 d6 05 80 03 3c 66 3d e5 d1 10 3b 0e b7 2d be
       -5.3595e-40 0.056209575 0.0022097763 -0.16964361
000030 a1 0d 06 3e af 3f 06 be 56 da 79 3c ad 43 92 3c
       0.13091137 -0.13110231 0.015249809 0.017854536
000040 dc 25 e7 bc 77 d8 e5 bd 23 88 2e 81 c8 de 5c 80
       -0.028216295 -0.11222928 -3.2056426e-38 -8.528785e-39
000050 e1 a9 9a 01 f1 03 4f 81 3e 61 05 00 b5 7e 16 81
       5.681443e-38 -3.8022723e-38 4.94061e-40 -2.7641557e-38
000060 0c 8b e5 80 fa f2 ee 80 2f 52 e6 81 fe c2 15 be
       -2.1080209e-38 -2.1944012e-38 -8.4606584e-38 -0.14625165
000070 3a 00 d6 b6 f5 95 37 3d 9a 17 ec bc 9f 75 b1 3e
       -6.3777234e-06 0.044820745 -0.028819848 0.3466005
000080 da 74 0b 3f cc 80 51 3c 5e 82 8b bc 1b ea 12 3e
       0.54475176 0.012787055 -0.017029937 0.14347117
000090 92 9c d9 8e 3e 2f 2e 12 45 ee 51 13 ce e2 d4 91
       -5.36454e-30 5.496295e-28 2.6496985e-27 -3.3587482e-28
0000a0 17 59 cf 09 4a a3 09 13 d7 b3 42 11 d6 d4 09 12
       4.9917217e-33 1.7372339e-27 1.5359319e-28 4.349192e-28
0000b0 e9 2f 7d 13 09 74 06 00 df 8b 06 80 a4 8a 05 00
       3.1956711e-27 5.92639e-40 -6.01189e-40 5.08912e-40
0000c0 3a 73 05 80 98 a5 06 00 03 54 06 80 d3 d3 05 00
       -5.00513e-40 6.10417e-40 -5.81151e-40 5.35166e-40
0000d0 dd e6 05 80 3a e7 05 80 40 c7 05 00 ff d1 06 00
       -5.41996e-40 -5.42126e-40 5.30655e-40 6.26345e-40
0000e0 51 db 05 00 ac fd 05 80 bc 0e 06 80 5f 48 06 80
       5.37853e-40 -5.50178e-40 -5.56299e-40 -5.76975e-40
0000f0 d9 cb 06 00 63 30 06 80 14 90 06 80 1e 74 05 00
       6.2414e-40 -5.68371e-40 -6.02698e-40 5.00832e-40
000100 6c ed 05 00 c5 3a 06 00 ab 17 06 00 15 bf 05 00
       5.44348e-40 5.72096e-40 5.59503e-40 5.27725e-40
000110 51 ba 05 00 c7 79 05 00 8e e8 05 00 2d 3e 06 80
       5.26015e-40 5.02863e-40 5.42602e-40 -5.73317e-40
000120 89 25 06 00 e9 8b 05 00 a9 ed 05 00 2a 5b 06 00
       5.64478e-40 5.09368e-40 5.44434e-40 5.83716e-40
000130 8e fd 05 00 2c 6a 05 00 18 81 05 00 40 13 06 00
       5.50136e-40 4.97265e-40 5.05488e-40 5.57919e-40
000140 08 c9 05 00 ea 0a 06 80 d1 af 06 80 8e 12 06 00
       5.31294e-40 -5.54928e-40 -6.14084e-40 5.57669e-40
000150 f4 03 06 00 bc c4 06 00 ae c0 05 00 7c 61 05 80
       5.52431e-40 6.21588e-40 5.28298e-40 -4.94148e-40
000160 6e 9f 05 00 b7 87 06 00 7f 00 06 80 56 41 06 00
       5.1637e-40 5.99698e-40 -5.51191e-40 5.74451e-40
000170 c8 d7 05 00 fb 9f 05 00 54 b8 05 80 f5 d9 05 80
       5.36585e-40 5.16568e-40 -5.25302e-40 -5.37366e-40
000180 9a 1b 06 00 62 9d 05 00 fe bb 05 00 98 29 d3 bd
       5.60915e-40 5.15636e-40 5.26616e-40 -0.10310668
000190 e1 fe da bd 34 c6 4b bd dd de 1e bd 7a 31 42 3e
       -0.106931455 -0.049749568 -0.038786758 0.18964186
0001a0 a2 f2 03 3e b5 ec 8e 3d 52 2a 6a 3e 18 3d b1 3d
       0.12885526 0.06978742 0.22867706 0.08654231
0001b0 06 08 06 00 de 5b 06 00 30 58 05 00 86 0d 06 00
       5.53891e-40 5.83969e-40 4.90813e-40 5.55864e-40
0001c0 e3 64 06 00 30 5c 06 00 d1 a7 06 00 b2 b0 05 00
       5.87204e-40 5.84084e-40 6.11214e-40 5.22564e-40
0001d0 87 57 05 00 33 67 06 00 0a 58 05 80 66 b2 05 80
       4.90576e-40 5.88034e-40 -4.9076e-40 -5.23175e-40
0001e0 93 02 06 00 e2 a5 05 80 cb c8 05 80 4f 7e 06 80
       5.51936e-40 -5.18685e-40 -5.31208e-40 -5.96324e-40
0001f0 1e 38 06 00 fa 6f 05 80 89 80 dd 1c ab 79 31 04
       5.71144e-40 -4.99347e-40 1.4657779e-21 2.0862117e-36
000200 16 df b3 a1 21 25 60 21 c4 7b 86 9c ba 22 f9 a7
       -1.2188562e-18 7.594329e-19 -8.899369e-22 -6.9149034e-15
000210 b7 98 04 00 23 25 34 8a 08 a1 d0 a2 ec e6 71 3d
       4.22126e-40 -8.6736694e-33 -5.654901e-18 0.059058115
000220 c0 4a bb bc 9e 3d 31 be 17 cf 69 3d de 87 cb bd
       -0.022862792 -0.17308661 0.057082262 -0.09938024
000230 61 50 cd bc f4 f0 ac 38 ce 99 bd bc d1 bd ac bd
       -0.025062742 8.24648e-05 -0.023144629 -0.08434642
000240 d7 75 06 00 0a 68 03 00 e4 d3 05 80 ef 02 06 80
       5.93286e-40 3.12829e-40 -5.3519e-40 -5.52065e-40
000250 83 0c 06 80 5c 25 06 00 85 bd 05 00 44 34 06 00
       -5.55501e-40 5.64415e-40 5.27164e-40 5.69762e-40
000260 8a 0d 04 00 50 ea 4f 3e ea 03 77 3d 40 0d 8f 3d
       3.72199e-40 0.20304227 0.060306467 0.06984949
000270 b5 e8 24 bc a9 98 be 3e 71 39 f5 3e b5 e5 01 3e
       -0.010065247 0.37225845 0.47895387 0.12685283
000280 f1 a4 91 bb 8e ec 43 3e 06 78 e3 bd cc 75 8f 3c
       -0.0044447114 0.19133207 -0.11106877 0.017512225
000290 70 81 a7 3b c1 33 45 be ae ef e9 bb f8 9d a3 bc
       0.0051118657 -0.19258024 -0.0071391677 -0.019972786
0002a0 aa 13 4c be 6e b0 13 3d 3e 3a 93 3d 6e 9e f2 3d
       -0.19929376 0.03605693 0.07188843 0.11846624
0002b0 6c a4 8d 3e 80 51 26 3e 5d 3f 14 be 28 17 0d 3e
       0.27664506 0.16242027 -0.14477296 0.13778365
0002c0 0e 29 93 3e 05 70 0a 3e 48 6d 92 3d 7c 61 be 3e
       0.2874226 0.13519295 0.0714975 0.3718375
0002d0 6f 77 62 bd 6c 4b e1 bc 29 de 6b 3d 20 50 23 be
       -0.055289682 -0.027501784 0.057584915 -0.15948534
0002e0 2c 49 61 be 4d da 49 bd 8c 79 9c bc c1 07 83 bd
       -0.22000569 -0.049280453 -0.019100927 -0.06397963
0002f0 f5 11 d8 3d 75 5b 06 00 be 82 06 00 dd ac 05 00
       0.105503 5.83822e-40 5.97914e-40 5.21189e-40
000300 bc d3 06 00 d1 78 05 00 e5 ce 05 80 0e 7d 06 00
       6.26969e-40 5.02518e-40 -5.33397e-40 5.95874e-40
000310 02 8a 05 00 f1 f0 05 00 3c 5e 05 00 36 61 05 80
       5.08685e-40 5.45611e-40 4.92982e-40 -4.9405e-40
000320 5f 5a 05 80 da 63 05 80 18 61 05 80 1d 59 05 80
       -4.91597e-40 -4.94997e-40 -4.94008e-40 -4.91145e-40
000330 61 59 05 00 2b 59 05 80 34 5e 05 80 c4 8f 05 80
       4.9124e-40 -4.91165e-40 -4.92971e-40 -5.10751e-40
000340 e7 2e 06 80 d0 cf 05 80 5b fa 05 80 89 98 05 80
       -5.67838e-40 -5.33727e-40 -5.48988e-40 -5.13897e-40
000350 70 1a 06 80 b4 55 06 80 5a 65 05 80 fa 98 05 80
       -5.60497e-40 -5.81757e-40 -4.95536e-40 -5.14055e-40
000360 d3 ef 03 bb fa cf a4 bc c6 57 97 3c a4 50 06 bd
       -0.002013196 -0.020118702 0.01847447 -0.03279175
000370 4f 40 54 bc 0e c0 01 bd 82 e9 bc bc 80 6f 31 bd
       -0.0129547855 -0.0316773 -0.023060564 -0.043319225
000380 b9 73 9a bc 36 92 4e 3e 0f 51 60 3e b7 6c 9f 3e
       -0.018854009 0.20172963 0.21905921 0.3113763
000390 32 4a 41 be e2 d2 13 be 85 df a6 bd e0 90 60 3e
       -0.1887596 -0.14435914 -0.08148102 0.21930265
0003a0 1e 98 02 3e 35 01 47 3e b6 38 78 bc 90 5b b7 bc
       0.1275334 0.19434054 -0.01515024 -0.022382528
0003b0 a2 06 5d bc 99 f1 51 3d 55 85 86 3d 0c 68 2d be
       -0.013490351 0.051255796 0.065684 -0.16934222
0003c0 fd 80 b4 3d a4 2e 2b 3e 6c 53 eb bd 46 15 aa bd
       0.08813665 0.1671701 -0.11490521 -0.08304839
0003d0 f7 3a b3 bc 53 ab a3 3d d5 1d 70 3e 16 14 91 3d
       -0.021878703 0.07991662 0.2344888 0.07083909
0003e0 ca 0f f1 bd f9 73 8c 3d 1f a0 3d 3c 4f 86 62 bd
       -0.1177059 0.068580575 0.01157382 -0.055303868
0003f0 96 61 05 80 54 5f 05 80 df 5b 05 00 11 67 05 00
       -4.94185e-40 -4.93375e-40 4.92135e-40 4.96151e-40

c2.bias f4 [56]
000000 0c 34 19 b7 a6 64 1b 37 63 19 fa 37 59 4a 6d 36
       -9.131629e-06 9.262154e-06 2.9814144e-05 3.5359028e-06
000010 5e 4e 84 b7 88 8f 96 37 18 01 06 80 90 f0 00 38
       -1.5772119e-05 1.794823e-05 -5.51405e-40 3.074162e-05
000020 1c 71 73 36 c1 43 15 b7 02 74 6b 37 01 c6 98 37
       3.627566e-06 -8.896867e-06 1.4034102e-05 1.8212015e-05
000030 2f 23 8e b7 7c 00 38 38 24 b4 05 00 dd aa ec b6
       -1.6944103e-05 4.386947e-05 5.238e-40 -7.053239e-06
000040 5e 34 c9 37 c9 3a 9f b6 fc 97 35 36 87 68 0c 38
       2.3985453e-05 -4.7454128e-06 2.7059568e-06 3.347595e-05
000050 79 ca 5f 37 6a 08 5e b7 07 0e 1f 38 a9 56 ad 36
       1.3338978e-05 -1.323419e-05 3.7921618e-05 5.1658903e-06
000060 6a 4e 1f 37 7a 00 d9 b8 dd 36 0f 37 67 d6 05 80
       9.495396e-06 -0.00010347455 8.536238e-06 -5.3609e-40
000070 e6 b9 38 35 e8 49 a0 36 51 5e f1 37 04 69 06 80
       6.881586e-07 4.7769754e-06 2.8773358e-05 -5.88685e-40
000080 89 3a 34 38 a8 76 77 b7 e3 40 13 38 43 ff 15 38
       4.296986e-05 -1.4749974e-05 3.510796e-05 3.57621e-05
000090 b0 38 52 37 69 e6 92 37 cd 61 d5 35 b5 1d 3e 37
       1.2530174e-05 1.751185e-05 1.58982e-06 1.1331799e-05
0000a0 26 96 06 00 3e 3d 3e b7 b2 e0 02 38 c5 fd 8b b6
       6.04876e-40 -1.1339142e-05 3.120368e-05 -4.1720655e-06
0000b0 19 c1 2c b8 08 56 ea b7 60 8e 01 b8 b6 62 38 b7
       -4.118783e-05 -2.7935035e-05 -3.0888594e-05 -1.0990238e-05
0000c0 09 da fc 35 d3 bd 8d b7 0f e6 c3 36 6e be 02 b7
       1.883892e-06 -1.6896904e-05 5.838235e-06 -7.792942e-06
0000d0 eb 93 81 b7 cc 08 76 37 e7 78 17 b8 22 69 20 b8
       -1.5446878e-05 1.4664791e-05 -3.6113805e-05 -3.8244885e-05

c3.weight f4 [40, 56, 3, 3]
000000 03 8f 16 3d f6 95 34 3d 90 56 88 bd c6 13 92 3e
       0.03675748 0.044088326 -0.066571355 0.2853071
000010 67 ef 05 3f 84 61 cd 3e 85 69 a6 3e 53 ef 75 3e
       0.52318424 0.4011346 0.3250238 0.24017076
000020 f4 65 01 3e 24 41 b6 bd 2e 40 03 3e f1 d0 3d 3e
       0.12636548 -0.08899143 0.12817451 0.18536736
000030 f1 28 f0 bd 81 df 3c be 4f c6 1c 3d 9e e4 e5 bd
       -0.11726559 -0.18444635 0.03827506 -0.11225246
000040 e3 1d b5 bd 09 90 e5 bd 09 d8 c8 bd 0a fe d4 bb
       -0.08843591 -0.11209113 -0.098068304 -0.0065000104
000050 e1 61 b3 bd 2f f0 2a be 78 2f ea 3d a8 71 50 bd
       -0.08758903 -0.16693185 0.11434835 -0.05088964
000060 0c 1a b3 be f2 e0 0c be d4 ed 3b bd 3b ac 99 3e
       -0.3498081 -0.13757685 -0.045881107 0.30014214
000070 2b 73 51 3e c5 5b b3 3d 73 7f 59 be 32 60 04 bf
       0.2045409 0.08757738 -0.21240024 -0.5170928
000080 16 4a cf be 85 22 13 bf 19 be 01 bf 7f 70 96 be
       -0.4048621 -0.5747455 -0.5068069 -0.29382703
000090 24 4b 6a be b8 de bd be 35 a7 45 be c5 42 b1 3e
       -0.22880226 -0.37083983 -0.19302066 0.34621254
0000a0 21 2e b0 3d 23 20 0f be 05 9c 71 3e 94 c7 bd 3e
       0.086025484 -0.13977103 0.23594673 0.3706633
0000b0 89 74 da bd 26 50 10 3e 73 6f bb 3e 9f fe 52 3e
       -0.106667586 0.14093074 0.36608467 0.20604943
0000c0 20 4d 24 be 9a 9b 88 be a8 2a 8e be 4a 0f ab bd
       -0.16045046 -0.26681215 -0.2776692 -0.083525255
0000d0 a2 c8 a2 bd 96 b4 70 3c 02 00 51 96 9f ed b9 96
       -0.07948424 0.014691493 -1.6882888e-25 -3.0038322e-25
0000e0 c3 7b cf 16 27 dd f5 91 3a 4e 5b 0c 22 f2 b5 13
       3.3520758e-25 -3.879048e-28 1.6894687e-31 4.5929585e-27
0000f0 20 ac 5f 14 41 86 4b 14 80 f7 e6 94 05 1d 85 bd
       1.12925685e-26 1.0275358e-26 -2.3321687e-26 -0.06499676
000100 c9 ac b7 bd 28 3e cf 3d 8c 45 be 3e 97 63 37 3f
       -0.08968503 0.10119277 0.37162435 0.7163634
000110 5b d6 c5 3e 2a 69 af 3d ea 15 3f 3e aa 2b ff bd
       0.38640103 0.0856498 0.18660703 -0.124595
000120 4f 49 f6 bb a8 33 90 3b f5 8b c4 3d 72 7b c4 bd
       -0.0075160633 0.004400689 0.09597007 -0.09593858
000130 7b 84 8d 3e 70 58 e4 3e 91 32 79 be b7 36 59 3d
       0.27640137 0.44598722 -0.24335696 0.053030696
000140 3b bb db 3e a8 0b 46 be c3 be 22 bd 91 ac 04 be
       0.42916283 -0.19340384 -0.039732706 -0.12956454
000150 26 27 99 be 0c fe cd be df 48 40 be 70 72 67 3e
       -0.2991268 -0.40232885 -0.18777798 0.22602248
000160 98 bc e7 bd a3 29 03 be 58 0b c4 3d 7f b7 76 3e
       -0.11315268 -0.12808852 0.09572476 0.24093436
000170 0f b6 d0 3c bc 2e a1 bd d4 c7 1b be 2b 60 9b be
       0.025477437 -0.07870242 -0.15212947 -0.30346808
000180 73 11 df 3e 82 cd 1e be 03 3c 3c be 40 c9 e0 3d
       0.43568 -0.15508083 -0.18382268 0.109758854
000190 93 ab ac 3e 0e c1 a7 3d 47 01 ae be a7 4e ab be
       0.3372465 0.08191119 -0.3398535 -0.33458444
0001a0 6c 66 92 bd 0c 4c a0 be 3d 8d 76 be 5e 31 77 39
       -0.07148442 -0.3130802 -0.24077316 0.00023574146
0001b0 aa e2 78 be 0b 95 94 bd 5f 3d 36 3c 17 13 ab 3d
       -0.24305215 -0.0725499 0.01112303 0.083532505
0001c0 1d 43 89 bd 53 d5 73 be 31 26 e6 3e 4c 90 2f 3d
       -0.06702254 -0.23811845 0.44951013 0.04286222
0001d0 8f a3 a8 be 86 88 34 3c 02 43 99 3e b9 27 64 bc
       -0.32937285 0.011018878 0.29933935 -0.013925486
0001e0 5b e6 da 3b 1c c1 21 be 8b a1 74 3d 94 bf 16 bd
       0.0066802925 -0.15796322 0.059724372 -0.036803797
0001f0 54 93 dd 3d c4 72 d4 bc ae ec 05 00 40 29 06 00
       0.10819116 -0.02593363 5.44082e-40 5.6581e-40
000200 85 61 05 00 5d f6 05 00 84 ce 05 00 ba b6 05 00
       4.94161e-40 5.47556e-40 5.33261e-40 5.24727e-40
000210 b9 3d 06 00 34 99 05 00 61 3d 06 00 e9 37 d5 bd
       5.73155e-40 5.14136e-40 5.73032e-40 -0.10411055
000220 ba fd 25 be e0 a7 82 3d 1a ed b6 3e 7f 40 a0 3e
       -0.1621007 0.06379676 0.3572777 0.31299207
000230 91 c6 c7 3e 9e a5 64 3e ed f5 ac 3e 8d bf cb 3d
       0.39018682 0.22328803 0.33781376 0.09948645
000240 49 f8 fe be ee b7 80 be 0b c9 4e 3d 15 46 39 bd
       -0.49798802 -0.25140327 0.0504847 -0.04523285
000250 cd be 6b bc 1a 9a 99 3e dc e4 a4 3d 15 8f c1 3e
       -0.014388752 0.30000383 0.08051464 0.37804475
000260 e8 37 23 3e 85 92 e3 bd d5 72 48 be 49 20 03 bf
       0.15939295 -0.11111931 -0.19575055 -0.5122114
000270 5b 4f 69 3e 3e 8d 18 be 80 85 04 be 4e 27 97 3d
       0.22784178 -0.1489763 -0.12941551 0.07380544
000280 cd 99 a1 3e 08 f2 86 3e 77 93 86 3d b5 7e e0 3d
       0.31562653 0.2635653 0.065710954 0.109616674
000290 0e ab 19 3d c3 93 00 3e ef 74 18 bd 93 33 cb bd
       0.037516646 0.12556367 -0.03722089 -0.099219464
0002a0 d3 b5 d2 3e 0c 46 6c 3e 56 c3 26 be d6 08 27 be
       0.41154346 0.23073596 -0.16285452 -0.16311964
0002b0 f9 7e 86 be d6 39 a3 bc d1 58 c2 3c 3f 30 0b 3e
       -0.26268747 -0.01992504 0.023723992 0.13592623
0002c0 76 c3 8a bd 8c 2b 09 3d c0 65 82 3e cc b5 97 bc
       -0.067755625 0.033488795 0.25468254 -0.018519305
0002d0 f1 5d 95 3e cd 64 8e 3e 9f 03 65 3e 5d 3a a4 bd
       0.29173234 0.2781128 0.22364663 -0.080189444
0002e0 74 34 86 3b 1e e2 fd bd a3 c7 54 3e d7 19 69 3d
       0.0040956084 -0.12396644 0.2077928 0.05690941
0002f0 a6 8c 69 3e 19 ac 99 3e c2 97 01 3e 8b bd f5 bd
       0.2280756 0.30014113 0.12655547 -0.11999043
000300 b6 d4 a0 bd 12 d2 bf 3e 54 3b 87 3e 1d b8 d2 3d
       -0.078530714 0.37464958 0.2641245 0.10289023
000310 f7 f0 80 be 31 b0 69 3e f8 2b 37 3d e0 99 03 3e
       -0.25183842 0.22821118 0.044719666 0.12851667
000320 f3 f5 17 be 65 59 20 3d 1a 07 90 bc a1 45 18 bd
       -0.14839916 0.039147753 -0.017581511 -0.03717578
000330 be 90 52 bd d8 96 6c bc 6b 97 0d 3d 50 85 0f 3e
       -0.05140757 -0.014440261 0.03456823 0.14015698
000340 82 41 51 3e 08 b6 0d 3e 58 55 b1 3c f3 49 4d 3d
       0.20435145 0.1383897 0.02164714 0.05011935
000350 e2 99 5a 3e 00 a4 79 3e c8 f1 81 3d 45 36 d5 3d
       0.21347764 0.24378967 0.06344944 0.10410742
000360 48 00 89 be 00 f6 83 be 78 2d 24 bd 2d f6 8b 3e
       -0.26758027 -0.2577362 -0.040082425 0.27336255
000370 4d f8 dc bc 33 6c 71 3e 3b 96 f8 3e bf 22 df 3e
       -0.026973868 0.23576431 0.48552117 0.43581197
000380 06 ae 8a 3e bc 07 bc bd 50 42 92 3c e9 db 96 bd
       0.27085894 -0.09181163 0.017853886 -0.07366163
000390 5f 00 ff bd 02 38 15 be 97 ef 42 be c1 70 26 bd
       -0.12451243 -0.14572147 -0.19036709 -0.040634874
0003a0 b5 33 44 bd 24 fa b9 be 70 dc 48 3e 00 b4 ea 3d
       -0.047900874 -0.36323655 0.1961534 0.114601135
0003b0 d6 1f 68 3d 33 e1 69 3d 1e 15 de bd ba fc 62 be
       0.056670986 0.057099532 -0.108438715 -0.2216672
0003c0 ba 6c ba 3d b0 df 74 bd e9 c5 9e bd 6f 77 05 00
       0.09102769 -0.059783638 -0.07752592 5.02022e-40
0003d0 57 9d 05 80 ce 7c 05 80 d3 98 05 00 d7 99 05 80
       -5.1562e-40 -5.03949e-40 5.14e-40 -5.14365e-40
0003e0 d1 7a 05 80 12 b3 05 80 18 52 06 80 a5 62 05 80
       -5.03236e-40 -5.23416e-40 -5.80463e-40 -4.94564e-40
0003f0 ca 99 7c 3c 7f cf b2 3d 09 3b c0 3d 4f 8b 58 bc
       0.015417526 0.08730983 0.0938626 -0.0132168075

c3.bias f4 [40]
000000 c2 64 ac 36 9f d9 0f b7 30 86 b2 b7 29 c5 55 38
       5.137729e-06 -8.574133e-06 -2.128174e-05 5.0966777e-05
000010 6d 0b 6b 37 55 c6 0c 38 51 1d 0f 38 63 7f 8c 36
       1.4009752e-05 3.3563312e-05 3.412116e-05 4.187155e-06
000020 63 4c 33 b8 0c de c6 b7 9b 95 52 37 28 24 a0 35
       -4.2748066e-05 -2.3706838e-05 1.2551808e-05 1.1931452e-06
000030 e0 c5 e4 37 fa c7 60 37 dc c4 e3 b7 cb 1b 63 38
       2.727186e-05 1.3398001e-05 -2.7152179e-05 5.41469e-05
000040 12 d9 15 38 5f 77 e8 b7 eb 17 bc 37 59 b9 f4 37
       3.572653e-05 -2.7712142e-05 2.2422484e-05 2.9173376e-05
000050 78 6e 10 38 fd 14 24 b8 93 10 f8 37 8b de 8e 38
       3.4435157e-05 -3.9120194e-05 2.9571622e-05 6.8125395e-05
000060 3e bb 91 36 19 f6 86 b7 74 b4 b8 b7 43 85 ed 37
       4.3431346e-06 -1.6088643e-05 -2.201854e-05 2.8314656e-05
000070 4d 61 1c b8 5e 64 04 37 6e f5 23 38 a6 4a 44 38
       -3.7283917e-05 7.891182e-06 3.9090803e-05 4.6799563e-05
000080 ce 23 2b b7 69 39 0e 36 0b 1c a8 38 ce 75 fc b6
       -1.0200731e-05 2.1193066e-06 8.016088e-05 -7.5238995e-06
000090 da f2 6d b7 18 78 cb 36 eb 71 29 b7 00 d5 00 b6
       -1.4182844e-05 6.063852e-06 -1.0099709e-05 -1.9197469e-06

batch_norm1.weight f4 [64]
000000 d6 5f 05 00 73 3a 3b 3f e1 4e cb 97 36 b3 c5 3f
       4.93557e-40 0.7313606 -1.3138479e-24 1.5445316
000010 2d c5 2f 99 23 b1 06 80 fe eb 05 80 d3 57 05 80
       -9.087107e-24 -6.14558e-40 -5.43836e-40 -4.90683e-40
000020 da 70 05 80 a1 6a 05 00 31 57 05 00 ee 59 0c 3f
       -4.99661e-40 4.97429e-40 4.90456e-40 0.5482472
000030 24 60 05 00 ed 5b 05 80 8d a0 fb 3c 8b ac 32 3f
       4.93666e-40 -4.92154e-40 0.030716205 0.6979453
000040 37 5d 05 00 49 f0 8d 3f 14 d1 b7 3f 13 68 7a 3f
       4.92617e-40 1.1088954 1.436068 0.97815055
000050 46 3b 98 3f 76 5b 05 00 ff ed 46 3a 81 63 05 00
       1.1893089 4.91987e-40 0.0007588565 4.94873e-40
000060 3b 75 ae 3e a0 e5 a2 3f b3 56 69 3f a8 53 0c 3f
       0.34073815 1.2726326 0.9114792 0.5481515
000070 57 77 d4 37 54 95 05 80 bc 21 b1 b8 dc 59 05 80
       2.5327941e-05 -5.12746e-40 -8.446301e-05 -4.91413e-40
000080 e0 5c 05 00 de 6f b6 3f 47 92 05 00 78 8a 81 3f
       4.92495e-40 1.4252889 5.11652e-40 1.0120382
000090 e6 f0 e3 3f cc 60 05 00 14 19 89 3f 7d 62 05 80
       1.7807891 4.93902e-40 1.0710778 -4.94508e-40
0000a0 d8 3a 29 3a 1f 5b 05 80 7c 5f 05 80 4e 31 06 80
       0.0006455607 -4.91866e-40 -4.93431e-40 -5.687e-40
0000b0 b7 9a f2 3e f3 f1 cd 99 cc b8 31 3c 02 5b 05 80
       0.47383663 -2.1294226e-23 0.010847282 -4.91825e-40
0000c0 24 e1 43 3f 9f 5b 28 3f 82 5a 05 00 02 64 05 80
       0.7651541 0.657648 4.91646e-40 -4.95054e-40
0000d0 15 7c 05 00 93 5a 05 80 b7 fa aa 1f 94 5a 05 00
       5.0369e-40 -4.9167e-40 7.2412573e-20 4.91671e-40
0000e0 78 a0 68 95 65 57 05 80 9d 3c 06 80 c8 90 60 3f
       -4.6978614e-26 -4.90529e-40 -5.72757e-40 0.8772092
0000f0 3f 58 05 80 77 1a 87 3f 74 60 05 00 8e 3e ed 39
       -4.90834e-40 1.0554951 4.93778e-40 0.0004525077

batch_norm1.bias f4 [64]
000000 cc b8 51 b7 11 9a a4 be a6 bc 5e 85 d0 63 00 be
       -1.2500397e-05 -0.32148793 -1.0473039e-35 -0.12538075
000010 95 94 93 96 35 80 cd a4 c4 5e 05 80 dd 5c 05 80
       -2.38429e-25 -8.912177e-17 -4.93173e-40 -4.9249e-40
000020 bb 64 05 80 08 62 05 80 0d 58 05 80 57 c0 c4 be
       -4.95313e-40 -4.94344e-40 -4.90764e-40 -0.38427994
000030 0f 69 05 80 bc 61 05 80 0b 8e ed bc 02 ec da 3c
       -4.96865e-40 -4.94238e-40 -0.028998395 0.026723865
000040 49 5f 05 80 e4 3c 1e bf 2a 0a e3 be 7d ce 1f be
       -4.9336e-40 -0.6181166 -0.44343692 -0.15606113
000050 e1 c6 9a be de 5d 05 80 25 80 e9 b6 55 7a 06 80
       -0.30229858 -4.9285e-40 -6.958859e-06 -5.94897e-40
000060 a2 b3 5b be c1 f7 2c 3e c8 19 62 bd b3 f8 8b bd
       -0.21455243 0.16891386 -0.05520037 -0.06834545
000070 20 0d 0b b7 77 0c 06 80 5e 1e d0 b1 af 60 05 80
       -8.2881015e-06 -5.55485e-40 -6.057049e-09 -4.93861e-40
000080 df d5 08 af 44 e9 37 be 18 db 1a a3 d4 4b 1c be
       -1.244511e-10 -0.17960078 -8.394752e-18 -0.15263301
000090 36 16 32 3e 3f a1 06 80 ed 4e 20 3e f6 3e 06 80
       0.17391285 -6.08857e-40 0.15655108 -5.73599e-40
0000a0 80 c3 63 bb 68 65 05 80 90 63 05 80 1f 5e 05 80
       -0.0034753978 -4.95555e-40 -4.94894e-40 -4.92942e-40
0000b0 e5 c3 a3 be 30 9d 8e 9c 13 41 6b bc 18 5e 05 80
       -0.31985393 -9.437404e-22 -0.014358777 -4.92932e-40
0000c0 5d d4 06 bf 15 d6 20 bf 55 9a 56 a3 1d 64 05 80
       -0.5266779 -0.62826663 -1.1633644e-17 -4.95091e-40
0000d0 9a c2 ae a4 69 58 05 80 22 fd 82 bc d5 4e b7 97
       -7.579014e-17 -4.90893e-40 -0.015989844 -1.1845998e-24
0000e0 8b f8 cc b0 ec 5c 04 b1 38 5d 05 80 24 9d 4d bf
       -1.4913594e-09 -1.9261348e-09 -4.92618e-40 -0.803179
0000f0 75 59 05 80 3c c7 d0 be 1d 8b 06 80 ff 84 e1 ba
       -4.91269e-40 -0.40777004 -6.00917e-40 -0.0017205774

batch_norm1.running_mean f4 [64]
000000 77 48 03 00 8b da f2 bb 54 73 00 80 86 09 54 be
       3.01502e-40 -0.0074113063 -4.1372e-41 -0.20706758
000010 d4 df 0d 00 07 8e 06 80 c2 07 0a 80 2a 58 0f 00
       1.274156e-39 -6.01963e-40 -9.21138e-40 1.40916e-39
000020 52 5a 09 80 ac 95 09 00 0c 8d 0c 80 6e d8 2f 3d
       -8.5892e-40 8.80212e-40 -1.152624e-39 0.042931013
000030 66 7b 0d 80 c8 9a 04 80 eb ea 8c ba af 26 be bd
       -1.238128e-39 -4.22867e-40 -0.0010751163 -0.09284722
000040 40 50 0e 80 da a7 4c 3d b5 40 3f be 13 f5 34 bc
       -1.314485e-39 0.049964763 -0.18677028 -0.011044758
000050 b1 0a 0e be f0 68 0a 80 fe bd 84 ad 69 a6 00 00
       -0.13871266 -9.56e-40 -1.5091036e-11 5.9697e-41
000060 e8 61 72 be 14 f1 03 be a3 27 e3 3c 59 dc dd bc
       -0.23670161 -0.12884933 0.027728861 -0.027082609
000070 c9 1f 44 ba 12 3f 0c 00 13 61 0a 80 f4 25 0b 00
       -0.0007481543 1.124651e-39 -9.53179e-40 1.023805e-39
000080 fe d3 03 80 e2 38 da bc 03 a3 04 00 d7 61 a3 bc
       -3.51555e-40 -0.026638452 4.2582e-40 -0.019944115
000090 41 f2 af be 8a 43 09 80 52 f3 96 bd a3 b0 0e 00
       -0.34364513 -8.50748e-40 -0.073706284 1.349062e-39
0000a0 b2 63 84 b4 9d c3 00 00 39 21 01 80 fd af 02 80
       -2.4659454e-07 7.0173e-41 -1.03754e-40 -2.46804e-40
0000b0 2c 9d f5 bd 73 67 04 80 8f 61 b7 b9 aa bb 06 80
       -0.11992869 -4.04453e-40 -0.00034977167 -6.18334e-40
0000c0 d5 cb 7d be 1f cc 64 3d d4 a3 02 00 4a e9 0e 80
       -0.24784787 0.055858728 2.42441e-40 -1.369385e-39
0000d0 90 e1 08 00 be 53 03 00 8b a0 61 1c 3f 2b 01 80
       8.156e-40 3.05548e-40 7.465375e-22 -1.07349e-40
0000e0 20 27 cb 9e e3 c1 0e 00 f2 73 00 00 a7 83 4b 3d
       -2.1509643e-20 1.35525e-39 4.1593e-41 0.0496861
0000f0 45 56 06 80 79 d6 54 be fd f1 04 80 70 19 ce 31
       -5.8196e-40 -0.2078494 -4.54151e-40 5.998281e-09

batch_norm1.running_var f4 [64]
000000 04 00 00 00 55 1f df 3d 04 00 00 00 49 e6 1f 3e
       6e-45 0.10894648 6e-45 0.1561519
000010 04 00 00 00 04 00 00 00 04 00 00 00 04 00 00 00
       6e-45 6e-45 6e-45 6e-45
000020 04 00 00 00 04 00 00 00 04 00 00 00 ce 0a 7d 3d
       6e-45 6e-45 6e-45 0.061777882
000030 04 00 00 00 04 00 00 00 34 10 41 36 ae f3 15 3e
       6e-45 6e-45 2.8768673e-06 0.14643738
000040 04 00 00 00 3e 9c eb 3d 77 1d 0d 3e b2 3b 19 3e
       6e-45 0.1150441 0.13780771 0.14964178
000050 ea 52 c0 3d 04 00 00 00 7f e1 5a 1c 04 00 00 00
       0.093908146 6e-45 7.2421596e-22 6e-45
000060 ef 1a 32 3e ef 9b 40 3e f4 44 bd 3d 96 48 37 3d
       0.17393087 0.18809484 0.092416674 0.044746958
000070 dc 13 f8 35 04 00 00 00 04 00 00 00 04 00 00 00
       1.848322e-06 6e-45 6e-45 6e-45
000080 04 00 00 00 81 ef 1c 3e 04 00 00 00 95 d1 1e 3d
       6e-45 0.15325738 6e-45 0.03877409
000090 2d 69 b7 3e 04 00 00 00 64 8d 21 3d 04 00 00 00
       0.3582243 6e-45 0.03944148 6e-45
0000a0 c9 f4 6b 2a 04 00 00 00 04 00 00 00 04 00 00 00
       2.095712e-13 6e-45 6e-45 6e-45
0000b0 36 32 29 3d 04 00 00 00 a6 e4 21 35 04 00 00 00
       0.04130765 6e-45 6.03099e-07 6e-45
0000c0 39 2f 28 3e db 1d 03 3e 04 00 00 00 04 00 00 00
       0.16424264 0.12804358 6e-45 6e-45
0000d0 04 00 00 00 04 00 00 00 b9 e1 08 00 04 00 00 00
       6e-45 6e-45 8.15658e-40 6e-45
0000e0 2a 67 13 00 04 00 00 00 04 00 00 00 fd 0f 36 3d
       1.781883e-39 6e-45 6e-45 0.04444884
0000f0 04 00 00 00 86 40 34 3e 04 00 00 00 28 aa fb 24
       6e-45 0.17602739 6e-45 1.09142154e-16

batch_norm2.weight f4 [56]
000000 66 56 f4 3e bd c4 3f 3f d4 e2 ca 3e 74 2d 80 3f
       0.47722167 0.74909574 0.3962618 1.0013871
000010 59 1c 38 3f 2c 83 4a 3f 00 60 05 00 2c 7d 56 3f
       0.71918255 0.791064 4.93616e-40 0.8378475
000020 da 58 1e 3f 64 25 1b 3f 5d 97 57 3f e0 18 21 3f
       0.61854327 0.6060393 0.8421534 0.6292858
000030 e2 58 26 3f 37 eb 71 3f 4f 58 05 80 cc 1c 13 3f
       0.64979374 0.94499534 -4.90857e-40 0.57465816
000040 1e ac 61 3f b7 76 24 3f c9 b6 35 3f 43 52 50 3f
       0.88153255 0.64243644 0.70982033 0.8137552
000050 6d fa 02 3f f3 22 87 3f ef 0b 6e 3f d9 f0 05 3f
       0.5116337 1.0557541 0.9298696 0.5232063
000060 dd 54 47 3f d1 ad 2c 3f 03 5e 3c 3f 2f 61 05 80
       0.77863866 0.6745272 0.7358095 -4.9404e-40
000070 27 7f ce 3e 87 06 e1 3e fb e8 60 3f d1 5f 05 80
       0.40331385 0.43950292 0.878555 -4.9355e-40
000080 96 65 18 3f 1a 70 2f 3f f3 36 42 3f 81 97 32 3f
       0.5953001 0.6853043 0.75865096 0.69762427
000090 e5 cb 3d 3f 73 14 08 3f c1 cf 1b 3f ba 45 fa 3e
       0.74139243 0.53156203 0.6086388 0.48881322
0000a0 94 71 06 80 29 0c 80 3f e2 19 0d 3f 12 53 57 3f
       -5.91757e-40 1.0003711 0.5511762 0.8411113
0000b0 03 d2 73 3f 85 e3 f6 3e b0 cd 42 3f e6 b4 53 3f
       0.9524233 0.4822046 0.76095104 0.82697904
0000c0 25 91 d6 3e c9 fe 39 3f b8 2c 12 3f 44 11 58 3f
       0.4190761 0.72654396 0.57099485 0.84401345
0000d0 8f 50 79 3f da b7 37 3f 57 84 86 3f 72 7f 54 3f
       0.9738855 0.7176491 1.0509137 0.83006966

batch_norm2.bias f4 [56]
000000 be 58 81 bf 94 bb e3 be 64 ab 3e bf 9c 9c 75 bc
       -1.0105207 -0.44479048 -0.7448027 -0.014990952
000010 36 05 58 bf 3f d7 fc be 67 dc 56 96 f6 8f 96 bf
       -0.8438295 -0.4938297 -1.7356329e-25 -1.1762683
000020 f6 b0 ce be 6d 0a 81 be c4 c6 d0 be f5 03 48 bf
       -0.40369385 -0.25203267 -0.40776646 -0.7813104
000030 3b ed 6a bf c9 61 ff be 38 d2 06 80 8a e9 94 be
       -0.91768235 -0.49879292 -6.26425e-40 -0.29084426
000040 06 e2 14 bf 25 83 05 bf 7f c6 b3 bf 02 0d c7 be
       -0.58157384 -0.52153236 -1.4044951 -0.38877112
000050 8a 3d 0f bf 3e 74 35 bf 38 a1 67 be 3e 2f 73 bf
       -0.55953276 -0.70880497 -0.22620094 -0.9499396
000060 98 4b 18 bf 4f 89 77 bf 2d 9a 38 bf 0e 65 05 80
       -0.59490347 -0.9669389 -0.72110254 -4.95429e-40
000070 67 af 3e bf b7 6d 6e bf 25 66 97 bf 04 5e 05 80
       -0.7448639 -0.9313616 -1.1828047 -4.92904e-40
000080 27 f7 a6 be c5 00 97 bf 63 22 a3 be b5 01 9c bf
       -0.32610437 -1.179711 -0.31862172 -1.2188021
000090 2b f4 1f bf 1c cc b7 be 49 a5 1d bf 72 e5 78 bf
       -0.62481946 -0.3589791 -0.6158033 -0.97225106
0000a0 9d ad 06 80 5a 46 33 bf 3e 04 05 be 20 95 11 bf
       -6.13294e-40 -0.7002922 -0.129899 -0.5686817
0000b0 62 63 67 bf d9 9a dd be cd 27 22 bf e9 75 9d be
       -0.9038602 -0.43282202 -0.6334198 -0.3075402
0000c0 96 2b 89 be 82 01 a1 bf 6b 80 5f bf d6 66 2e bf
       -0.26791066 -1.2578585 -0.87305325 -0.68125665
0000d0 d0 77 89 be 86 ed 16 bf 53 62 62 bf 02 7d a0 bf
       -0.26849222 -0.5895618 -0.8843128 -1.2538149

batch_norm2.running_mean f4 [56]
000000 30 5b fe 3f d0 e3 95 3f 44 bf 07 c0 72 d7 6e c0
       1.9871578 1.1710148 -2.121049 -3.7318997
000010 f3 14 04 c0 84 c2 c2 be 12 0d 12 00 bf 64 3e c0
       -2.0637786 -0.3803903 1.657728e-39 -2.974899
000020 e1 4a 10 c0 0f 5d 77 c0 61 87 a5 c0 e6 49 70 c0
       -2.2545702 -3.8650548 -5.1727757 -3.7545104
000030 f9 5f 32 c0 fe 47 5e c0 54 ac 3c 00 e5 96 82 c0
       -2.7871077 -3.473144 5.57195e-39 -4.0809197
000040 98 11 ae bf b3 cb 88 bf 47 7b af bd 13 a3 19 c0
       -1.3599119 -1.0687164 -0.08568435 -2.4005783
000050 e2 44 3b 40 44 50 3f c0 56 69 7a c0 f3 86 a5 3f
       2.9260793 -2.989274 -3.9126792 1.2931808
000060 18 48 74 c0 fc 0c 62 c0 7a db 15 bf 1c 6b 25 80
       -3.8169003 -3.5320425 -0.5853802 -3.436337e-39
000070 99 96 b6 3f f6 d7 73 3f 41 81 0d c0 71 44 11 80
       1.4264709 0.95251405 -2.211014 -1.585756e-39
000080 88 29 99 c0 a0 9a 1a c0 15 01 7b c0 6a 41 3b c0
       -4.7863197 -2.4156876 -3.921941 -2.9258676
000090 12 d9 2e c0 fa 89 26 c0 a8 c4 4a c0 0c dc 6d 3e
       -2.731999 -2.6021714 -3.168253 0.23228472
0000a0 f0 07 26 00 46 8c 0b c0 5e 58 ca bf 15 26 5e c0
       3.492596e-39 -2.1804366 -1.5808218 -3.4710743
0000b0 26 f0 f3 3f b5 ef 8b bf 53 df 7a 40 8d b7 1d c0
       1.9057662 -1.0932528 3.9198806 -2.464328
0000c0 5e 92 06 c0 e2 38 cf 3f 36 20 d2 bc 60 de 4a c0
       -2.1026835 1.6189234 -0.025650125 -3.1698227
0000d0 59 82 34 c0 7e d0 58 be 6d 17 96 3f cf 6d d1 3e
       -2.8204558 -0.21173283 1.1725899 0.4090409

batch_norm2.running_var f4 [56]
000000 ca a3 bf 40 fd 1a 38 41 ab be a8 40 03 02 8b 41
       5.988744 11.506589 5.273275 17.375982
000010 0d 6d 49 41 77 85 53 41 04 00 00 00 52 4f 21 41
       12.589124 13.220084 6e-45 10.081865
000020 11 62 38 41 cb 93 13 41 61 42 78 41 aa 9e e1 40
       11.523942 9.223582 15.516206 7.050618
000030 98 22 d0 40 dd 3a 83 41 04 00 00 00 5f 9b 30 41
       6.504223 16.403742 6e-45 11.037932
000040 9f e9 2f 41 e8 96 df 40 06 96 fc 40 b6 ff 8d 41
       10.994536 6.987171 7.8933134 17.749859
000050 ea 57 08 41 69 79 11 41 3c 41 b2 41 f7 34 86 40
       8.521463 9.092141 22.281853 4.1939654
000060 e6 fb 43 41 1a 91 ea 40 03 d5 2b 41 04 00 00 00
       12.248999 7.3302126 10.739505 6e-45
000070 95 e0 e4 40 d8 13 97 40 da 31 2d 41 04 00 00 00
       7.152415 4.7211723 10.824671 6e-45
000080 18 d1 b9 40 4f 10 f6 40 ee b6 35 41 4d 9b e3 40
       5.806774 7.689491 11.357161 7.1127076
000090 49 e2 4c 41 68 39 04 41 40 99 e6 40 9e 5f a3 40
       12.805245 8.264015 7.2062073 5.105422
0000a0 04 00 00 00 70 d0 65 41 d7 76 40 41 77 6c 8a 41
       6e-45 14.363388 12.029014 17.302961
0000b0 aa 1b 35 41 5c 53 04 41 44 56 02 41 6c 7c 8b 41
       11.319254 8.270351 8.146061 17.435753
0000c0 5c 79 f9 40 71 7b 5d 41 3e 29 a9 40 a7 02 31 41
       7.7960644 13.842637 5.2862844 11.063148
0000d0 44 d7 2c 41 13 1e e4 40 56 81 2c 41 5e a3 04 41
       10.802555 7.128671 10.781576 8.289885

batch_norm3.weight f4 [40]
000000 aa ba ee 3f 74 21 d2 3f 6a 9f 00 40 06 c4 de 3f
       1.8650715 1.6416459 2.0097299 1.7403572
000010 06 99 d6 3f 03 b1 ee 3f 51 8a d1 3f e6 a4 bf 3f
       1.6765449 1.864777 1.6370336 1.4972198
000020 36 d9 0a 40 2d db c8 3f 2a 70 8c 3f 2f c7 ec 3f
       2.1695075 1.5691887 1.097173 1.8498286
000030 ca de bc 3f 8a c2 ac 3f 48 d3 e9 3f e9 b3 f6 3f
       1.475549 1.3496869 1.8267603 1.9273654
000040 c5 de e2 3f 38 32 e9 3f 55 5a e6 3f ed d1 ce 3f
       1.7724234 1.821845 1.7996317 1.6157814
000050 b3 04 e2 3f 79 78 d1 3f af 68 f7 3f 44 1c fa 3f
       1.7657684 1.636489 1.9328822 1.9539876
000060 f1 88 d6 3f e4 5d b2 3f 96 c0 e5 3f d3 0c c8 3f
       1.6760541 1.3934903 1.7949398 1.5628914
000070 fb 4a ef 3f 76 61 d2 3f 5e 01 e4 3f 85 5f f3 3f
       1.8694757 1.6435993 1.7812917 1.9013525
000080 45 09 dd 3f 12 cb f3 3f d7 35 ea 3f f3 d9 f8 3f
       1.7268454 1.9046347 1.8297681 1.9441513
000090 7f 90 0f 40 4b b5 dd 3f 88 93 df 3f 4e 19 f1 3f
       2.2431943 1.7320951 1.7466898 1.8835847

batch_norm3.bias f4 [40]
000000 94 cd 61 bf fd 8d 6d bf 55 52 83 bf f3 f9 6e bf
       -0.8820431 -0.9279478 -1.0259501 -0.9335014
000010 3c c1 8d bf 82 bc 29 bf f1 6c 5c bf 1f 15 a1 bf
       -1.1074595 -0.66303265 -0.8610373 -1.2584571
000020 32 1d 6c bf c0 be 7f bf 2d 43 6b bf 4c 79 93 bf
       -0.9223205 -0.99900436 -0.9189938 -1.1521392
000030 85 f6 8d bf 7d 76 68 bf 45 2c 4f bf 0e 3b 47 bf
       -1.1090857 -0.908058 -0.80926925 -0.77824485
000040 24 ff 90 bf d9 1c 92 bf 38 1b 80 bf 15 02 b2 bf
       -1.1327863 -1.1415054 -1.0008307 -1.3906885
000050 e0 97 77 bf 20 09 88 bf 57 4a a6 bf 81 7a 80 bf
       -0.9671612 -1.0627785 -1.2991437 -1.0037385
000060 04 45 5a bf 65 42 8d bf fd 1d 87 bf 7d ad 90 bf
       -0.8526156 -1.1035887 -1.0556027 -1.1302944
000070 20 ce 47 bf 88 71 96 bf 36 fc 70 bf ef fb b4 be
       -0.78048897 -1.1753397 -0.94134843 -0.3534846
000080 7c c5 87 bf 46 57 7b bf e6 a9 84 bf 55 dd 6d bf
       -1.0607142 -0.98180044 -1.0364349 -0.9291585
000090 75 86 81 bf 1b 3f 73 bf 27 35 85 bf 38 a1 8c bf
       -1.0119158 -0.95018166 -1.0406846 -1.09867

batch_norm3.running_mean f4 [40]
000000 6b 37 86 bf c4 e1 c4 3f 13 57 22 bf 9a 42 a7 be
       -1.0485662 1.5381398 -0.63414115 -0.32668
000010 0b 5f 12 3f 0b 07 58 3f 87 4e 14 40 bc b4 2f bf
       0.57176274 0.84385747 2.317293 -0.68635154
000020 fc 00 60 3f 13 ab 57 3f e9 85 af 3f 5b 5a 05 40
       0.875015 0.84245414 1.3712741 2.0836399
000030 53 39 8e be cb b7 a3 3f a5 33 12 c0 2a 50 b7 bf
       -0.2777811 1.2790464 -2.2844021 -1.4321339
000040 13 13 87 3e c4 bb 4e 3f 09 76 46 3f 2b 4c 61 3e
       0.2638174 0.8075526 0.7752386 0.22001712
000050 db 3e db 3f a7 3b 4a 3f 40 0e 34 c0 7f c3 06 c0
       1.7128557 0.7899727 -2.8133698 -2.1056821
000060 58 d6 c7 bf b6 80 1f 3f 7f 3b 59 bf 0d cb 27 40
       -1.5612288 0.6230577 -0.8485641 2.6217682
000070 04 bf ea 3f a2 4a be bf 32 dc a7 3e 7a 03 e4 bf
       1.8339543 -1.4866526 0.32785183 -1.7813561
000080 44 26 17 40 e3 3f 0f 3e d2 ad ee bf 08 7f af be
       2.3617105 0.13989215 -1.8646796 -0.34276605
000090 db db e1 be f5 92 15 3f a1 8c 36 bf 7e 7a 84 bf
       -0.4411305 0.58427364 -0.7130833 -1.0349882

batch_norm3.running_var f4 [40]
000000 7e 9b c0 40 50 43 f1 40 50 f2 d7 40 e2 b1 be 40
       6.018981 7.539467 6.748329 5.959214
000010 20 9f ae 40 c8 3b c2 40 68 ba e7 40 bb cd 55 40
       5.4569244 6.0697975 7.2415047 3.3406818
000020 10 22 da 40 5e a1 a1 40 90 ec 4d 40 a9 e0 c1 40
       6.816658 5.050948 3.2175636 6.0586743
000030 ef 49 ad 40 61 49 a2 40 43 24 f2 40 44 bc f8 40
       5.415275 5.0714574 7.5669265 7.7729816
000040 ca 48 f0 40 fc 22 d9 40 20 f6 db 40 45 1a cd 40
       7.5088854 6.7855206 6.8737946 6.4094567
000050 39 f4 ee 40 5c a8 a9 40 e2 4d dd 40 d6 cb b9 40
       7.4673123 5.3018017 6.915757 5.8061323
000060 bc 3f 8f 40 23 6f 78 40 ef 73 bb 40 fe 33 d0 40
       4.47653 3.8817832 5.857902 6.5063467
000070 ce 52 ac 40 db 20 8c 40 0c 17 bc 40 24 13 32 41
       5.385108 4.3790107 5.8778133 11.129673
000080 a2 b2 cb 40 0e 5d d2 40 13 5d c5 40 db 09 d9 40
       6.365556 6.573859 6.1676116 6.782453
000090 de 73 ea 40 de 65 bf 40 94 1e b4 40 00 4d c9 40
       7.326644 5.981185 5.6287327 6.2906494

fc.weight f4 [62, 360]
000000 35 f7 5a bd ef ff ab 3c 04 c9 62 3e 70 13 06 be
       -0.05345841 0.020996062 0.22146994 -0.13093352
000010 c0 f4 d7 be 5c b2 df bd f9 33 82 bd f1 fd 82 bd
       -0.42178917 -0.10922691 -0.06357569 -0.06396092
000020 ee fa d7 be 03 b1 19 3e 97 d3 51 be d4 f0 45 be
       -0.42183632 0.15008931 -0.20490871 -0.1933015
000030 8e e0 c0 be 2a 27 12 be e6 25 8d be 47 a7 e6 bd
       -0.37671322 -0.14272752 -0.27567977 -0.11262374
000040 46 94 7e 3e 51 0b a5 3e ff 27 a0 3d 01 6c 49 be
       0.2486125 0.32235196 0.07820129 -0.19670106
000050 1b a9 c0 be a2 eb b2 3e b2 f8 ed be 3f 78 96 be
       -0.37629017 0.349454 -0.46478802 -0.29388615
000060 97 1b 49 3e 13 58 c1 3e 5b 74 40 3e 0b be 37 be
       0.19639431 0.37762508 0.18794386 -0.1794359
000070 fd 10 08 bc 2a 43 e3 3d 2c c5 d3 3d 49 e6 0d 3e
       -0.008304832 0.11096795 0.10340342 0.13857378
000080 6b 77 63 3e ba 39 a7 3e 3f 84 0d 3e ba b1 bf 3d
       0.22213523 0.3266123 0.13819979 0.093600705
000090 40 14 2b be d0 bf a1 bd 0f 00 a8 be 0b df 88 bc
       -0.16706944 -0.078979135 -0.32812545 -0.016707918
0000a0 63 45 83 bc 64 69 46 3e d9 36 37 be 14 5e 3a be
       -0.016024297 0.19376141 -0.17892016 -0.1819995
0000b0 21 dd 6b 3e 40 c1 35 3e 1e 9d 06 bf 3a 0f 96 be
       0.23033573 0.177495 -0.5258349 -0.29308492
0000c0 35 1b 58 be dd 71 df bd bf d2 1d be 39 69 83 3e
       -0.21104129 -0.109103896 -0.15412425 0.25666216
0000d0 5e ea 58 bd a7 98 02 be 6b 28 40 3d 80 66 9e 3e
       -0.052957885 -0.12753545 0.046913546 0.30937576
0000e0 3e 5b 78 3d ff ea 81 3e 76 52 f0 3c 5c 53 9e bc
       0.06063389 0.253746 0.029336195 -0.019326858
0000f0 69 64 9d be 0b 11 04 3f 94 21 c1 3d f7 8d ab bd
       -0.3074067 0.51588506 0.09430233 -0.08376687
000100 f4 02 95 3e 3f ad 0c be 88 cd 1c 3e 4a da 8f bd
       0.29103816 -0.13737963 0.15312779 -0.07024057
000110 31 ea 13 be df ad 8a 3e 0d 4b b6 be 3e 4b 7d be
       -0.14444806 0.27085778 -0.35604134 -0.24735734
000120 cf 81 ad 3d 11 40 17 bc 7e 0e c9 3d be d0 98 be
       0.08472025 -0.009231583 0.09817217 -0.29846758
000130 1a e5 b1 be 81 15 e2 be 36 30 a8 3d 90 4b c3 bc
       -0.34745103 -0.4415703 0.082123205 -0.023839742
000140 aa 28 b5 be 14 e9 44 be 40 2c b0 be ab 46 04 3f
       -0.35382587 -0.19229537 -0.3440876 0.5167033
000150 92 01 b4 3e 30 33 d0 3e bd 6a b6 bd bd 7e dd bd
       0.35157448 0.40664053 -0.089070775 -0.10815189
000160 43 78 13 bb a5 af ca 3e e0 ed c8 3c a0 8d 66 be
       -0.0022502101 0.3958713 0.02452749 -0.22514963
000170 bf 8f 09 3e 43 db 1a be 46 fe b9 bd a3 1f 0c bc
       0.13433741 -0.15122704 -0.09081702 -0.008552465
000180 c6 d4 bc bd f2 74 48 3e d6 d5 e9 be bc 9d 3c be
       -0.09220271 0.19575861 -0.45670956 -0.18419546
000190 4f e1 21 3e 21 7b 4f 3e 45 1d 1b be 65 64 09 3d
       0.15808605 0.20261814 -0.15147884 0.03354301
0001a0 e0 97 30 3d ae 88 9d be b8 d7 45 be 29 cc b7 be
       0.04311359 -0.3076834 -0.19320571 -0.3589795
0001b0 99 09 11 bd 9c 54 16 be 83 37 37 3d c2 1c 03 3f
       -0.035409544 -0.14680713 0.044730674 0.51215756
0001c0 f5 2c ec 3c e2 a6 03 be 42 4c cb 3e b9 63 a0 3d
       0.028830031 -0.1285663 0.39706618 0.078315206
0001d0 a0 a2 5e be 54 d3 ba 3d 76 1c 51 3d 86 ff 9a 3e
       -0.21741724 0.09122339 0.051052533 0.30273074
0001e0 e2 38 f1 bd fb 37 d0 bd f0 cc 00 3e ee f9 7d be
       -0.11778428 -0.101669274 0.12578177 -0.24802372
0001f0 27 37 84 3e 69 25 f7 3d b2 1f 9d be 99 14 00 3f
       0.25823328 0.12067682 -0.30688244 0.5003143
000200 b3 ca a8 3e 1f ac 51 bd 09 6a 19 be 8f 3e 52 bb
       0.32967147 -0.051189538 -0.14981855 -0.0032080745
000210 1d 55 51 be 03 ab 4c 3e 71 3c fb bc 93 44 d4 3d
       -0.20442624 0.19987111 -0.03066847 0.10364642
000220 c1 c1 0a 3d 00 6f b0 bc d9 92 e0 3d 57 ca 01 3e
       0.033876184 -0.021537304 0.10965509 0.12674843
000230 a9 c9 d3 be e9 82 12 3e 27 b1 c4 3b d9 6a 38 ba
       -0.41364792 0.14307751 0.0060025635 -0.00070349645
000240 17 0f f5 be 10 b3 1c be 89 8b 5d 3e 73 16 6c 3e
       -0.47863075 -0.15302682 0.2163526 0.23055439
000250 07 80 ec bd 5d 59 45 3e 8e be 6d be f7 27 a5 3e
       -0.11547857 0.1927237 -0.23217222 0.32257053
000260 64 80 45 3e ff 91 f0 bd 87 16 63 3d d7 1c a1 bd
       0.19287258 -0.117465965 0.055441406 -0.07866829
000270 98 3a 57 bd 3a 68 8b be ef 78 ed bd ac c6 8e be
       -0.052546114 -0.27227956 -0.11595332 -0.2788595
000280 76 ac 62 3c 36 6f e1 3e 4f 91 5f be 74 7b 6a 3e
       0.013835063 0.4403016 -0.21832775 0.22898656
000290 2a 9a e0 3d 3c fc 86 be 9d 70 c8 be bc a9 3a 3d
       0.109669045 -0.26364315 -0.39148417 0.045572028
0002a0 a2 25 9e 3e d2 58 c7 3e 73 26 68 3e 21 34 9a bd
       0.30888087 0.38934952 0.22670917 -0.07529474
0002b0 aa f1 ec be f6 1a f1 be 1b 8c 55 3e 6c d7 3a 3e
       -0.46278125 -0.47090882 0.20854227 0.1824624
0002c0 ad be 80 3e 84 33 8b be b1 26 bf 3e 01 bc 8e 3e
       0.25145474 -0.2718774 0.37334207 0.2787781
0002d0 f3 ab 08 3e 3c 40 23 3e 81 fb ed 3e 6c 01 04 bf
       0.13346843 0.15942472 0.46480945 -0.5156467
0002e0 69 30 e5 be bf bb 77 bd 52 91 dc be 70 dc fc be
       -0.44763497 -0.060481783 -0.4307962 -0.4938693
0002f0 3f 94 61 3e 13 5d 72 be 97 3c a9 3e a7 82 5a 3e
       0.22029208 -0.23668317 0.3305404 0.21338902
000300 5b 65 60 be d0 b5 ea be 94 34 fb be 64 d6 51 bd
       -0.21913664 -0.45841837 -0.4906355 -0.05122985
000310 fc 18 da be b3 cd 2f 3d f4 79 61 bc 9b 94 df 3d
       -0.42597187 0.04292078 -0.013761986 0.10917016
000320 9c 3d 6a 3e c6 d9 4c bd 1e 8c 93 3e 7f 62 0f 3f
       0.22875065 -0.050012372 0.28817838 0.5600967
000330 eb 6b 97 bc 68 0b 14 bf 89 f7 73 be 0b fc ac 3d
       -0.018484076 -0.57829905 -0.23824896 0.08446511
000340 3a 91 24 3d 8b e7 d8 bc e5 3f 5d 3d f7 4b 6f be
       0.04017756 -0.026477596 0.054016013 -0.23368822
000350 5f 40 cc bb 75 8f 12 3e 6d fa 32 3e 5d b1 fd 3d
       -0.0062332596 0.14312537 0.17478342 0.12387345
000360 34 82 1c be 55 55 b8 3e 47 8c c1 3e 45 e5 2a be
       -0.15284044 0.36002603 0.37802336 -0.16689022
000370 cb b3 8a bd 47 8e fb 3d 62 40 4f 3e d4 a7 4e 3e
       -0.06772574 0.122829966 0.20239404 0.20181209
000380 df 5b 3b bf 1c d5 e5 3e 89 68 d3 3e fb 3c db 3c
       -0.7318706 0.44889152 0.41290691 0.026762476
000390 0b b7 9c be 20 42 d7 be b2 fb 93 be c1 2c 87 3d
       -0.306084 -0.42042637 -0.28902966 0.06600333
0003a0 ac ed 56 3e 41 20 e7 3d 4f 02 d9 bd 78 a3 63 3e
       0.20989102 0.11285449 -0.105961435 0.22230327
0003b0 18 f6 ec 3e 84 37 54 be e0 52 2a 3d ee b5 d0 bb
       0.46281505 -0.20724303 0.041582942 -0.006369344
0003c0 02 9c d2 bd bd 2f 00 bf 00 11 9f bd 68 2d 85 be
       -0.102836624 -0.5007284 -0.07766914 -0.26011205
0003d0 6c b5 1e be be 8e 98 be 6c 33 c3 bd 91 ee 98 3e
       -0.15498894 -0.29796404 -0.09531292 0.29869512
0003e0 5e 4d 23 3e f7 20 5a be 3a b7 c1 be 64 db fa 3d
       0.15947482 -0.21301638 -0.37835103 0.12248877
0003f0 c6 a7 83 3d a5 8e c3 bc f8 dd 58 be 3e 5a 98 be
       0.064284846 -0.02387173 -0.21178424 -0.2975635
